…
  desc: null
  value: <function constant_fn.<locals>.func at 0x7ffaf20fac80>
max_grad_norm:
  desc: null
  value: 10
n_envs:
  desc: null
  value: 1
n_episodes_rollout:
  desc: null
  value: -1
num_timesteps:
  desc: null
  value: 0
observation_space:
  desc: null
  value: Box(-3.4028234663852886e+38, 3.4028234663852886e+38, (4,), float32)
optimize_memory_usage:
  desc: null
  value: 'False'
policy:
  desc: null
  value: "DQNPolicy(\n  (q_net): QNetwork(\n    (features_extractor): FlattenExtractor(\n\
    \      (flatten): Flatten(start_dim=1, end_dim=-1)\n    )\n    (q_net): Sequential(\n\
    \      (0): Linear(in_features=4, out_features=64, bias=True)\n      (1): ReLU()\n\
    \      (2): Linear(in_features=64, out_features=64, bias=True)\n      (3): ReLU()\n\
    \      (4): Linear(in_features=64, out_features=2, bias=True)\n    )\n  )\n  (q_net_target):\
    \ QNetwork(\n    (features_extractor): FlattenExtractor(\n      (flatten): Flatten(start_dim=1,\
    \ end_dim=-1)\n    )\n    (q_net): Sequential(\n      (0): Linear(in_features=4,\
    \ out_features=64, bias=True)\n      (1): ReLU()\n      (2): Linear(in_features=64,\
    \ out_features=64, bias=True)\n      (3): ReLU()\n      (4): Linear(in_features=64,\
    \ out_features=2, bias=True)\n    )\n  )\n)"
policy_class:
  desc: null
  value: <class 'stable_baselines3.dqn.policies.DQNPolicy'>
policy_kwargs:
  desc: null
  value: '{}'
policy_type:
  desc: null
  value: MlpPolicy
q_net:
  desc: null
  value: "QNetwork(\n  (features_extractor): FlattenExtractor(\n    (flatten): Flatten(start_dim=1,\
    \ end_dim=-1)\n  )\n  (q_net): Sequential(\n    (0): Linear(in_features=4, out_features=64,\
    \ bias=True)\n    (1): ReLU()\n    (2): Linear(in_features=64, out_features=64,\
    \ bias=True)\n    (3): ReLU()\n    (4): Linear(in_features=64, out_features=2,\
    \ bias=True)\n  )\n)"
q_net_target:
  desc: null
  value: "QNetwork(\n  (features_extractor): FlattenExtractor(\n    (flatten): Flatten(start_dim=1,\
    \ end_dim=-1)\n  )\n  (q_net): Sequential(\n    (0): Linear(in_features=4, out_features=64,\
    \ bias=True)\n    (1): ReLU()\n    (2): Linear(in_features=64, out_features=64,\
    \ bias=True)\n    (3): ReLU()\n    (4): Linear(in_features=64, out_features=2,\
    \ bias=True)\n  )\n)"
remove_time_limit_termination:
  desc: null
  value: 'False'
replay_buffer:
  desc: null
  value: <stable_baselines3.common.buffers.ReplayBuffer object at 0x7ffaf20f3630>
sde_sample_freq:
  desc: null
  value: -1
seed:
  desc: null
  value: None
start_time:
  desc: null
  value: 1626882542.815917
target_update_interval:
  desc: null
  value: 10000
…
